converted_model.tflite (tflite, 424756 bytes, 8 tensors)

conv2d_1/Conv2D_bias f4 [6]
000000 f5 86 fe bc ad dd d3 bd 6f e0 8c bd 9f 3f 57 bd
       -0.031070212 -0.10345016 -0.06878745 -0.05255091
000010 e8 df ca 3d 7f e9 92 bc
       0.09905988 -0.017933605

conv2d_1/kernel f4 [1, 3, 3, 6]
000000 71 1a f0 3d ef b9 36 be b4 b3 84 3e 9b 93 75 3e
       0.11723793 -0.17844366 0.25918353 0.23982088
000010 e9 be 21 be d9 9b 42 be 41 f4 25 be 4b aa 4c bd
       -0.15795483 -0.19004764 -0.16206457 -0.04996709
000020 d9 5d 9f 3e 0f 98 54 3e ff 6e 27 be 35 ae 3e 3d
       0.31126288 0.20761131 -0.16350935 0.046552856
000030 32 59 69 be 5c 9c 7d 3e 8c dc 0a be 4f 7d 7d 3e
       -0.22787932 0.24766678 -0.13560694 0.24754833
000040 8c b4 92 3e 64 59 48 bd 8f c2 86 3e 4c a1 2a 3e
       0.2865337 -0.048913375 0.2632031 0.16663092
000050 6e bd 95 3e 13 13 7a bc 65 95 98 bd f9 7c b2 3e
       0.29246086 -0.015263337 -0.0745037 0.34860972
000060 7a cd 03 3d 5f f3 c5 3e d2 01 a0 3e 71 18 68 be
       0.03217838 0.3866224 0.3125139 -0.22665574
000070 6f fb 1b 3d 74 11 3b 3e 3f d6 72 3e 91 b6 12 3c
       0.038081583 0.18268377 0.23714541 0.00895466
000080 4d 7e 29 be 51 79 9a be 46 74 e7 3d f8 56 c8 3e
       -0.16552086 -0.30170682 0.11301474 0.39128852
000090 82 de a2 3e 2a 22 b6 3e 38 e1 57 bd 84 4c 88 bd
       0.31810385 0.3557294 -0.05270502 -0.06655219
0000a0 e5 69 8b be 15 8e 0f be 2b 1d b3 3d 63 38 8f 3d
       -0.2722923 -0.14019044 0.08745798 0.06993177
0000b0 23 af b6 3e 63 91 7d 3e ef 8a a2 bd 72 20 57 be
       0.35680494 0.24762492 -0.07936656 -0.2100847
0000c0 f0 69 b5 3e e2 04 41 3e 85 f3 8f 3d 64 58 72 3e
       0.35432386 0.18849519 0.070288695 0.23666531
0000d0 55 1d 3e b9 f8 60 c3 be
       -0.00018130739 -0.3815992

conv2d_2/Conv2D_bias f4 [32]
000000 05 63 59 3c fe c4 ed bd 10 c4 bd bd c1 05 28 3c
       0.013268237 -0.11609839 -0.092659116 0.010255278
000010 9a 73 c3 bc b1 cf e1 3d 6e 10 e8 bd 3a 8b f3 bd
       -0.023858834 0.11025942 -0.11331259 -0.1189179
000020 fa 7a d0 bd a4 2c 38 3d 1e 2c d5 bd fe 7e ed bd
       -0.10179706 0.044964448 -0.10408805 -0.115964875
000030 a5 a0 04 be af e7 7b 3d b9 92 a0 bd 61 73 d9 3d
       -0.12951906 0.061500248 -0.07840485 0.1061771
000040 00 8a ff bd df f6 93 3d 61 43 6f bd d5 a8 02 3d
       -0.12477493 0.07224821 -0.058413867 0.031899292
000050 b2 ec 60 bd 38 9e 70 bd 2b 44 a1 bd ef ec e9 bc
       -0.05491323 -0.05874464 -0.0787433 -0.028555362
000060 da d3 b8 bd e4 8a 1a bd b6 3d 58 bd 8f f8 be bd
       -0.090247825 -0.037730113 -0.052793227 -0.093247525
000070 7d 9e 94 bd 01 fc 98 3c ee 4d d5 bd 3b c6 c4 bd
       -0.07256792 0.018674852 -0.104152545 -0.09608122

conv2d_2/kernel f4 [32, 3, 3, 6]
000000 14 24 7d bc a5 9b 01 be 35 bc b6 bd 6a 9c b6 3d
       -0.015450496 -0.1265703 -0.089226164 0.08916552
000010 c8 fc 89 be 34 20 a7 3d eb 77 1d be 4e bf b4 bd
       -0.2695067 0.08160439 -0.15377776 -0.08825551
000020 e5 bc 07 be ef c8 b7 bd 5a 3f 85 bd 6d c1 f4 bd
       -0.13255651 -0.08973872 -0.06506224 -0.119509555
000030 21 73 66 be f1 15 25 be ae f8 0f be 70 2d 4e bd
       -0.22504856 -0.16121651 -0.14059708 -0.0503363
000040 17 60 c6 bd 85 e3 30 be 69 2a 02 3e 1f 55 1a 3e
       -0.096862964 -0.17274292 0.1271149 0.15071534
000050 36 16 22 3e dd 53 f8 3d 40 9a 0d be 48 89 24 3d
       0.15828785 0.12125371 -0.13828373 0.040169984
000060 86 05 49 3d 02 02 30 3e 6b 44 f6 bc a9 6c 47 3d
       0.049077533 0.17188266 -0.030061921 0.04868761
000070 d8 a9 95 be 24 23 a5 3d a7 cd 07 3e b4 66 04 bc
       -0.29231143 0.08063343 0.13262044 -0.008081127
000080 9b 39 d7 bd d3 cb 5c bd 2e af 5d bd 50 02 5d 3d
       -0.10509034 -0.05390532 -0.054122142 0.053957283
000090 98 c9 00 be ed 86 91 bd 66 b8 84 bd 88 e4 16 bc
       -0.12576902 -0.07105813 -0.06480484 -0.0092097595
0000a0 ef c7 b6 3d 8d 53 8d 3e 99 24 dd 3c 8e f8 c6 3d
       0.08924853 0.27602807 0.02699499 0.09715377
0000b0 8a 7a 83 3d 9a 8e 38 3e 37 2d 1d bb 18 9f d3 3c
       0.06419857 0.18023148 -0.002398325 0.025832698
0000c0 d3 92 00 3d d2 4b 17 3d b3 38 6d 3d 8d e6 94 3d
       0.031390022 0.036937542 0.0579154 0.072705366
0000d0 25 61 88 bd 95 4f 5f 3e 3a fc 56 3d e4 30 98 bd
       -0.06659154 0.21807702 0.052486636 -0.074312
0000e0 a4 cd 9d 3c d1 8c 9e 3d 86 86 14 be be 4b 05 3e
       0.019263096 0.07741702 -0.14504442 0.13017175
0000f0 6c 19 96 3d cc fa ad 3d d9 9a 8e 3d 85 57 a1 ba
       0.073290676 0.08495101 0.069631286 -0.0012309408
000100 2a c5 0d be ab 77 72 3e 9c 3b 9c 3d e5 21 c4 3d
       -0.13844743 0.23678462 0.07628557 0.09576777
000110 57 0b 42 bd fa 55 40 3c 99 ea 7c bd fe 60 58 3e
       -0.047374096 0.011739248 -0.061747167 0.2113075
000120 19 17 83 3d 48 e9 00 3e 4c 88 dc 3c 85 e3 12 3e
       0.0640089 0.1258899 0.02692046 0.14344604
000130 78 3b 7e be 81 98 16 3e 10 e0 8e bd a2 fd 85 bd
       -0.24827373 0.14706613 -0.0697633 -0.06542517
000140 27 7f 94 bd db 9a 39 3e 1c a9 51 be e9 8e 76 3e
       -0.07250815 0.18125479 -0.20474666 0.24077953
000150 f1 b6 22 3d 6c d1 84 3d 81 44 42 bb 44 74 ee 3d
       0.039725248 0.064852566 -0.0029642882 0.1164327
000160 89 2b ee bd 8e 20 ab 3d 1f 03 44 3d 0c 8c 41 3d
       -0.116293974 0.08355819 0.04785454 0.0472527
000170 f4 2e ea bd 5d c8 1f bd 9a 25 78 ba 35 67 1f 3e
       -0.11434737 -0.03900944 -0.0009466052 0.15566714
000180 fb f9 41 bd 24 7f ba bd 1b e0 f7 bc 89 2e 74 3c
       -0.04735754 -0.091062814 -0.030258229 0.014903673
000190 0f ec 8d bd ae ce d4 3d 01 4b 80 bd e8 38 99 3d
       -0.0692979 0.103909835 -0.06264306 0.07481557
0001a0 61 80 2f bc e1 55 85 bd 67 84 b4 3c 29 db 72 3d
       -0.01071176 -0.06510521 0.02203579 0.05929104
0001b0 9c df bd bc e3 98 51 bd 05 06 2b 3e 5c e8 76 3d
       -0.023177914 -0.051171195 0.16701515 0.06028019
0001c0 a6 1d 71 bd f4 d5 15 be bb 3b 1a 3e 55 ba bd 3d
       -0.058866166 -0.14632398 0.15061848 0.09264056
0001d0 36 73 6d bd e5 ac 98 bc 91 72 85 bd 25 85 5b be
       -0.0579712 -0.01863713 -0.065159924 -0.2143751
0001e0 f8 af 71 bb 5c c1 0e bc 18 6e 51 bd f9 3b 0f be
       -0.0036878567 -0.008713093 -0.051130384 -0.13987722
0001f0 76 88 a7 bc c4 06 2e be 18 05 7c bc ec 6a bd 3d
       -0.020450812 -0.16994768 -0.015382074 0.09248909
000200 45 ea aa 3d 52 6a b4 bd f0 5e a7 bd ff 0c 72 bd
       0.083454646 -0.088093415 -0.08172405 -0.059094425
000210 bb 83 ba 3d bd 43 85 bc 55 d1 30 3e bd 89 f7 bb
       0.09107157 -0.016267652 0.17267354 -0.0075542615
000220 12 00 3f be 62 c3 1d be 0e b8 bb 3d 84 51 af bd
       -0.1865237 -0.15406564 0.09165965 -0.0856047
000230 d5 08 dc 3c 67 7b b7 3d c6 d6 0c be e3 45 22 be
       0.02685968 0.08959084 -0.13753805 -0.15846972
000240 5d 58 09 be 6c 5e 46 ba 11 a7 0e be f0 90 11 be
       -0.13412614 -0.00075671705 -0.13930918 -0.14215446
000250 ba 91 4e 3d 7c a0 34 be 0b b1 6d 3d 90 f1 21 3e
       0.050431944 -0.17639345 0.05803017 0.15814805
000260 5a 5e 58 bd b8 87 1f bd ca ad ba 3d b5 d1 9c bd
       -0.052824356 -0.03894779 0.09115179 -0.07657186
000270 00 8d a1 bc 1b 4d 0d 3e 33 e5 df 3d 0b 84 48 3d
       -0.019720554 0.13798945 0.10932388 0.04895405
000280 f7 c2 14 be 69 b2 a5 bd 62 5c 03 bd b0 20 07 3b
       -0.14527498 -0.0809067 -0.032070525 0.0020618849
000290 ef 23 85 3d 9a 4e 86 bd 2e 78 07 3e d6 a5 0a 3c
       0.065009944 -0.06557961 0.13229439 0.00846239
0002a0 5f d1 b4 bd b4 7f 7e 3c 76 7c 0a 3e 54 9b b8 3d
       -0.08828997 0.0155333765 0.1352404 0.090140015
0002b0 80 d1 13 3c e9 35 5a bb 01 7e 2f 3d b4 ec 8d bd
       0.009022117 -0.0033296293 0.042844776 -0.06929913
0002c0 22 22 ff 3c 2d c6 ab bd 79 66 cf 3d 4f ab c7 bd
       0.031144205 -0.083874084 0.10126967 -0.097494714
0002d0 6b 43 24 3e 76 2c c5 bc ab 02 20 3e 49 37 3e bd
       0.16041343 -0.024069052 0.15626018 -0.046439443
0002e0 c0 61 4e 3d cc 85 7e bc 43 ee 26 3d 04 c2 dd bd
       0.05038619 -0.015534829 0.040754568 -0.10828021
0002f0 30 a5 62 bd b6 6c 45 be 92 11 85 bc 11 0a 98 bd
       -0.055333316 -0.19279751 -0.01624373 -0.07423795
000300 e2 9c 0c ba ad ca 38 3d d2 0d dc bc 1c 0c 21 be
       -0.00053639535 0.04511516 -0.026862059 -0.15727276
000310 c5 b4 fa 3d 33 1d 56 be 20 b7 29 3b 3c d5 31 bb
       0.1224151 -0.20909576 0.0025896505 -0.0027135154
000320 73 37 26 3e 44 fd 9c bd c4 a0 92 3d 1c e2 d4 bb
       0.1623209 -0.07665494 0.0715957 -0.006496681
000330 16 5a f5 bb 60 5c c1 bc 90 89 0e be b1 c6 1f be
       -0.0074875457 -0.023603618 -0.13919663 -0.15603139
000340 7d a8 7e 3d fa 1f 3d be 30 a4 13 bd c9 39 c0 3c
       0.0621724 -0.1846923 -0.036045253 0.023465054
000350 ce 8b 73 3d 21 3c 06 be 9b 9a 6d 3e 87 be a2 bd
       0.0594595 -0.13108875 0.23203509 -0.079464965
000360 8c f7 d7 3d 9e a2 24 3e 78 e1 b6 bc 42 2f fc 3b
       0.10545263 0.16077659 -0.022324309 0.0076960633
000370 62 71 4d bd 73 3b 92 3d 19 64 21 3d 8f 66 b8 3d
       -0.05015696 0.07140245 0.0394021 0.090039365
000380 6a aa 82 bd 5d 07 a8 bd c3 69 85 be ae 16 8d 3e
       -0.0638016 -0.082045294 -0.26057252 0.27556366
000390 bc 67 9b 3d 57 ff 2f 3e fb 67 55 3d d7 3b 5b 3c
       0.07588145 0.17187248 0.052101117 0.013380966
0003a0 f2 bb 83 bd 23 ca 11 3e 18 dc 08 be 1a c4 61 bd
       -0.06432332 0.14237265 -0.13365209 -0.055118658
0003b0 e5 04 83 3d c1 0b 08 3e eb 37 f8 bd 4e ab 2e 3e
       0.06397418 0.13285734 -0.121200405 0.17057535
0003c0 2a d4 aa bc 1b dd 02 bc 83 71 46 3d 72 86 ed 3d
       -0.02085312 -0.007987286 0.048448097 0.11597909
0003d0 4d d6 52 be 33 02 84 3d 6e b7 c5 3d b6 e2 af bd
       -0.20589562 0.06445732 0.09654127 -0.085881636
0003e0 2a b3 ae 3c 56 c2 c2 3d 38 b4 e1 3c d6 cf 90 3c
       0.021325666 0.09509723 0.027551755 0.017677229
0003f0 87 b3 0f be ea 82 89 bd 9a 2b 54 bd 43 dd 00 be
       -0.14033328 -0.06714423 -0.051799394 -0.12584405

dense_1/MatMul_bias f4 [128]
000000 24 64 4e bc b5 01 50 bc 4f 3d 81 bc d4 c8 50 bc
       -0.012597118 -0.0126957195 -0.015776305 -0.012743194
000010 01 a6 cf 3b eb 77 05 3c 9b df 09 3d d4 7a a1 bb
       0.006336928 0.008146266 0.033660512 -0.0049279723
000020 c9 7c df 3c 12 7f 14 bd 44 72 40 bc fe f4 1e 3c
       0.027281182 -0.036253996 -0.011745993 0.009701965
000030 7c 8c 95 3c b2 66 73 bc 03 a0 91 3d 86 1c 74 bc
       0.018255465 -0.014856027 0.07110598 -0.014899379
000040 80 26 02 bc e8 9f 3c bc 0d 2a 69 bb 05 1d 1b bd
       -0.007943749 -0.011512734 -0.0035578043 -0.037869472
000050 f1 e7 c7 bc b9 db 21 3d bc af 11 3d 77 9c a4 bc
       -0.02440259 0.039516184 0.035567984 -0.02009414
000060 95 dd 48 bd 47 51 23 3d 51 b2 22 bb af 30 16 3d
       -0.049039442 0.039872434 -0.0024825523 0.036667522
000070 b8 ad a8 3c 07 e9 23 3c 76 9a d7 3b b8 1e 5c bc
       0.020590648 0.0100042885 0.0065796925 -0.013435058
000080 b6 a1 d4 3b e1 8b 87 3d 1c 8f c3 bc ad 53 18 3d
       0.006489004 0.06618477 -0.02387195 0.037189174
000090 6e 90 26 bb 62 4f f5 bc a9 ca 0f bc 90 0a 35 bb
       -0.0025415677 -0.02994508 -0.008776345 -0.0027624704
0000a0 39 15 02 bd 7c 61 39 3c ef 00 92 bc fe 30 79 3d
       -0.03175852 0.011314746 -0.01782271 0.06083774
0000b0 c9 92 b9 bc 79 48 1a 3c 2e 18 39 bd f3 35 2f bc
       -0.022653 0.009416693 -0.045189075 -0.010694015
0000c0 d9 a4 83 bc 15 fb 60 bb 2c b5 55 3d 5b 78 3a bc
       -0.016069816 -0.0034329344 0.052174732 -0.011381234
0000d0 79 71 2d 3d 9e 76 d0 3c 37 b5 4f 3c 60 e3 c7 bc
       0.042344544 0.025447186 0.012677482 -0.024400413
0000e0 71 69 eb bc 9a f7 c3 3c 71 a8 45 bd 35 ed ac bc
       -0.028736802 0.023921777 -0.04825634 -0.021109203
0000f0 73 7f dc ba b1 90 e1 3a ef 61 30 bc 70 a4 23 bd
       -0.0016822651 0.0017209259 -0.010765537 -0.03995174
000100 c8 2c 46 bc cc 84 16 bc 9d 8a 42 3c 14 10 6c 3d
       -0.012095638 -0.009186935 0.011873868 0.05763252
000110 4b 0b 19 ba 47 00 c6 39 a5 3a 9b bc 0e 07 c3 bc
       -0.00058381696 0.0003776571 -0.018948862 -0.023807075
000120 8c 25 92 3c a3 47 0f 3d a4 de 29 bc 56 b5 18 bd
       0.01784017 0.034980427 -0.010368023 -0.03728231
000130 8f a4 06 3d fc 47 33 bc b8 7c 44 3d 1b 92 18 bc
       0.03287178 -0.010942455 0.047970504 -0.009312178
000140 f5 d0 1f bc ca ba 89 bc 70 65 35 bc d1 b9 15 bc
       -0.009754409 -0.0168127 -0.011071548 -0.00913854
000150 27 7c a4 3c 52 73 b3 bb fe 38 38 bc da 63 fe bc
       0.020078732 -0.0054763937 -0.011244057 -0.031053472
000160 18 02 9a bc 8c a5 40 3b c6 ad 03 bc 83 22 c9 bb
       -0.018799827 0.0029395549 -0.008037036 -0.0061381473
000170 2f 86 8b bd 6a f7 06 bd 66 b3 10 3b ff b1 cf bc
       -0.06812703 -0.032950796 0.0022079586 -0.02535343
000180 e4 a1 13 bc 01 e8 f7 bb 23 f9 73 bd ad bb 3e bc
       -0.009010766 -0.007565499 -0.059563767 -0.011641425
000190 72 c7 4e bc 3d c5 f9 ba 22 7e de bc f3 cf 90 3d
       -0.012620794 -0.0019055974 -0.027159754 0.07070913
0001a0 54 ae 03 bc 18 96 0c 3d 54 55 b4 bc 26 00 9e 39
       -0.0080371685 0.034322828 -0.022013344 0.0003013622
0001b0 54 c6 1a bd 1c 29 22 bd 0b ae 37 3d 33 9f 9f 3c
       -0.037786797 -0.039589986 0.044843715 0.019485092
0001c0 cc 55 b8 bc 94 a1 50 3c 48 b8 26 bc 35 07 77 3c
       -0.022501849 0.012733836 -0.010175772 0.015077402
0001d0 00 8f e1 3c 20 db 61 3d a9 cf 6e bd b6 74 06 bc
       0.027534008 0.055140615 -0.05830351 -0.008206537
0001e0 42 cc ec 3c 04 64 b8 bc 6b 0b 6b 3d e8 96 f9 3c
       0.028905991 -0.022508629 0.057383936 0.030467466
0001f0 e2 78 fd bc f4 75 fb bb a6 02 6c bc d6 91 21 bc
       -0.03094143 -0.007673973 -0.014404928 -0.00986143

dense_1/kernel/transpose f4 [128, 800]
000000 95 c2 92 bd 0e 5a 77 bc 5b f5 5f 3c ea a1 86 3d
       -0.0716602 -0.015097154 0.013669337 0.065738514
000010 f5 93 42 bc 82 2c d0 bd 56 51 2f bd 32 16 bd 3b
       -0.011876096 -0.10164739 -0.042802177 0.005770468
000020 13 5f 02 3d 60 28 ac 3d 4e 16 b6 bd 61 17 5d bd
       0.03182895 0.084061384 -0.08890973 -0.053977374
000030 26 98 3e 3b ec fb 02 3d 9c cf 7c bd 76 bb a2 bc
       0.0029082387 0.031978533 -0.06172143 -0.019864779
000040 67 a5 6f bd 96 52 a0 3d eb 9d 01 bc 85 17 5f bc
       -0.05850735 0.07828252 -0.007911186 -0.013616447
000050 bd 39 7b 3c bd a6 6e bc 11 54 37 bb 83 df 60 bd
       0.01533359 -0.014566121 -0.0027973691 -0.054900657
000060 b2 73 c4 3d ec 8d 5a bd 86 f7 07 3d a2 26 12 3d
       0.0959238 -0.053358003 0.03319504 0.035681374
000070 a6 c6 ab bd d8 26 53 3d 71 ed 69 bc 1f 3c 69 3d
       -0.083874986 0.051550716 -0.014277802 0.0569421
000080 73 4c 72 bd e4 62 c0 3c 4e 91 40 bd e8 d5 f6 3d
       -0.05915494 0.023484655 -0.047013573 0.12052518
000090 a7 b8 11 bd 92 83 c9 bd 2f b1 8c bd b8 81 04 3d
       -0.03557649 -0.09839548 -0.068697326 0.032350272
0000a0 d5 00 bb 3c d0 1c 60 3d 34 d5 72 bd 5f c1 e6 3c
       0.022827545 0.054714978 -0.059285358 0.028168378
0000b0 e9 bf 67 bd 38 2e f2 ba 88 f5 bd 3b 9e 9c 9d 3d
       -0.056579504 -0.0018476909 0.005797092 0.07695888
0000c0 14 f8 dc bd 8b ad 96 bc aa 7c 59 3d 93 1b 3d bd
       -0.10789505 -0.018393299 0.053097405 -0.046168875
0000d0 c1 1a 8d bc 9a 62 4f 3d 76 f2 6c 3d 6f b9 5d bd
       -0.017224671 0.050631143 0.057848416 -0.05413192
0000e0 36 c3 17 bd e9 12 46 bd bd 50 2b 3d b8 d2 3a 3c
       -0.037051402 -0.048357878 0.041825045 0.011402778
0000f0 d2 ff 05 3c 4a 8f d6 3d 0a ad 98 3d 96 d9 a8 3c
       0.008178668 0.10476549 0.074548796 0.020611566
000100 89 a4 0e bd a0 dd 4d bc e8 2d b2 3c 3a 5d 91 3c
       -0.03482488 -0.012565047 0.021750405 0.01774465
000110 5f 15 b5 bc 45 c7 bf bd 3d c3 1a bd 2b a3 71 3d
       -0.022104917 -0.093641795 -0.03778385 0.0589935
000120 b3 f1 94 bd 79 73 cf bc 42 25 43 bd f0 73 3b bd
       -0.07272663 -0.025323616 -0.047642954 -0.045764863
000130 5f 22 4b bd 99 17 d8 bc 64 e0 4b bd 1c 47 1b 3d
       -0.049593326 -0.02637844 -0.049774542 0.037909612
000140 50 29 66 bd 62 99 30 bd 48 d6 30 3c 74 c9 1e 3d
       -0.056191742 -0.043115027 0.010793276 0.03876634
000150 a6 1a 02 bd 36 96 a9 bd 12 3a 05 bc ed c0 bf 3b
       -0.031763695 -0.082806036 -0.008131521 0.005851856
000160 c1 5a ec bc ef 16 60 3c 81 75 3c 3d 11 b0 c0 bb
       -0.028851869 0.013677343 0.046010498 -0.0058803638
000170 19 d1 3f bd a8 a7 b9 bd a7 65 9c bc 83 8f 6e bd
       -0.04683027 -0.09065181 -0.01909144 -0.058242332
000180 c4 6f 89 3c 5c 36 9a 3c c8 5b 88 bc 39 64 4f 3c
       0.016776927 0.018824749 -0.016645327 0.012658172
000190 b5 23 a3 3d a9 1a 85 3c ad 6e 53 bb 92 dc af 3d
       0.07965795 0.016248064 -0.0032262013 0.08586992
0001a0 4e 27 92 3d f5 a8 d3 bd f6 bc cf 3c 1d 58 2e 3c
       0.07136403 -0.1033496 0.025358658 0.010641125
0001b0 6d 10 b3 3b d0 37 fc bd f0 aa 27 bc 7d c6 f7 3c
       0.0054646046 -0.12315333 -0.010233626 0.030246014
0001c0 12 52 1c bd 9c 14 52 bd b8 81 61 3d f2 7c f0 3c
       -0.038164206 -0.051289186 0.05505535 0.029356454
0001d0 5f 5b 3c 3d e1 52 fc 3c 14 d8 a8 bd fd c9 00 bc
       0.045985576 0.030801238 -0.08244339 -0.007860658
0001e0 1f f4 8f 3c 1a 2d 1f 3d 8b 9d 65 bc bd 93 77 3d
       0.01757246 0.03886137 -0.014014612 0.06044363
0001f0 aa fb 44 3d 81 52 4b 3d 8b 1b 04 3d 68 46 6d 3c
       0.048091568 0.04963923 0.03225283 0.014482118
000200 e7 ab 89 bd 55 8c 13 bc 80 79 8a bb d9 9a 8c ba
       -0.06722241 -0.009005626 -0.0042259097 -0.00107273
000210 ed a7 71 3d 3d 34 5a 3c ed 0f 8f 3d f1 d3 8a 3c
       0.058998037 0.013318119 0.069854595 0.016946765
000220 04 5e 27 3d 3b 4f 59 bd 1d 14 83 bd ee 51 2b 3d
       0.040861145 -0.053054076 -0.06400321 0.04182618
000230 17 bf 15 bd cc 95 e9 3c 5b 2a 65 3d b8 8e a0 3d
       -0.03655919 0.028513812 0.055948596 0.078397214
000240 f8 1d 5d bc a2 cc 88 3d aa d4 9e 3d d3 97 61 3d
       -0.013495915 0.066796556 0.07755406 0.05507643
000250 83 89 b0 3d 2d cb 75 3d e5 39 e3 3c 9e ba 6e bd
       0.08619978 0.060008217 0.027737567 -0.05828344
000260 a1 91 51 3d 90 17 ce 3d 97 cc 29 bd 2d 28 6c 3d
       0.051164273 0.10063088 -0.041454878 0.057655502
000270 ee b0 30 3d af aa c1 3d cf ae a1 3d c5 af a4 3c
       0.043137483 0.094563834 0.0789467 0.020103345
000280 68 24 17 be 4d 52 4a bc 31 06 8e bd 8a e5 8a 3d
       -0.14759982 -0.012348724 -0.06934775 0.06782062
000290 f9 b9 70 3d 03 44 8f bd cc e9 8d bc e6 94 96 3d
       0.058771107 -0.06995394 -0.017323397 0.07352619
0002a0 98 4d d9 3b d7 81 f2 3c 0c 69 f5 bd 52 4d 08 bd
       0.0066315643 0.029602928 -0.11982927 -0.033276863
0002b0 bc 93 6b bd 1d 76 39 3d da bf 08 3c 4e 50 00 be
       -0.057513937 0.045278657 0.008346522 -0.12530634
0002c0 93 cf bf bd b7 1f d1 bc ff 5b da 3d 80 a6 c8 bc
       -0.093657635 -0.025527818 0.10662078 -0.024493456
0002d0 81 8f 5c ba 57 b6 3c bc 0c 61 cc bc b8 e4 48 bb
       -0.0008413718 -0.011518083 -0.02494862 -0.0030653905
0002e0 33 35 8e 3d 3a 89 65 bb 05 51 64 bd 9c 18 49 bd
       0.06943741 -0.003502442 -0.05574133 -0.049095735
0002f0 b9 87 52 bd e7 a9 94 3d d6 d1 95 bd d5 68 84 bd
       -0.051398966 0.07258969 -0.07315414 -0.064653076
000300 ff c9 c4 bd 0c 76 6d bd 32 b8 4f 3d b9 30 37 3e
       -0.0960884 -0.057973906 0.05071277 0.1788968
000310 7d 71 c7 bc 3a eb 87 bd d9 bc 1a 3d dd 45 9f bc
       -0.024346108 -0.06636663 0.037777755 -0.019442493
000320 96 22 cb 3b e3 98 0b bd 70 13 a4 3c 21 8b ba 3c
       0.0061991913 -0.03408135 0.0200288 0.02277142
000330 c0 69 8d bd 73 dc 1a 3d 73 0f 1d 3c 3d 91 3d be
       -0.06904936 0.037807893 0.009586203 -0.18512435
000340 04 a3 cc bd e7 59 62 3c 56 f7 99 3c 40 ee c9 bd
       -0.0999203 0.01381538 0.018794697 -0.09859896
000350 6f 77 94 3d 58 ad db 3c 77 e2 5c 3d d2 1d 9d 3d
       0.07249343 0.026816055 0.05392691 0.076717034
000360 7a 85 3c 3d 00 2d 07 bd 29 55 8c bd cf f6 9f 3c
       0.04602573 -0.0330019 -0.068521805 0.019526867
000370 7c 91 f4 bd 0d 35 3a bd b0 ce 31 bd 65 e6 d0 bd
       -0.119418114 -0.04546075 -0.043410003 -0.10200194
000380 4d 95 7e bd be ab 26 bd 83 0f 45 3d a7 01 ec 3d
       -0.062154103 -0.04069113 0.048110496 0.11523753
000390 53 34 99 3c 2a 8b 53 bc 5c 69 f5 bb b7 9a af 3a
       0.018701708 -0.012911597 -0.0074893665 0.0013397549
0003a0 99 ab 55 bc 89 f9 ae bb 53 7c f8 3b 57 ea 81 bd
       -0.0130414 -0.0053398055 0.00758318 -0.06343525
0003b0 2e 74 a0 bd 2f 0a 19 be db d8 17 3d c7 30 ce bb
       -0.078346595 -0.14945291 0.037072044 -0.006292436
0003c0 c4 92 85 3b 4c 51 45 3a 04 33 8f bc 14 fe e5 bd
       0.0040763337 0.0007527068 -0.01748038 -0.11230102
0003d0 2a 93 0d 3c d3 a5 13 3c 92 04 33 3d 93 be fe bc
       0.008641044 0.009011704 0.04370553 -0.031096732
0003e0 09 35 24 3d 7a aa c2 bd ad 6f 9c bd 28 ca 50 bd
       0.04008964 -0.09505172 -0.07638488 -0.05097404
0003f0 9f 59 26 bd 97 04 e2 bd 41 cb 99 bc 71 02 1b bd
       -0.040612813 -0.11036032 -0.018773677 -0.037844125

dense_2/MatMul_bias f4 [10]
000000 0d 4b ed 3d 42 61 12 bd a0 a1 18 bb 53 62 21 bd
       0.115865804 -0.035737284 -0.0023289695 -0.03940041
000010 07 2d 93 bc 44 dd 66 bd 4a 04 b3 bb df b0 34 bd
       -0.017965807 -0.05636336 -0.005463158 -0.04411399
000020 89 7f 96 3d 20 71 20 bc
       0.07348544 -0.009792596

dense_2/kernel/transpose f4 [10, 128]
000000 d2 63 43 3e 6b 8d 03 3d 3a a9 c7 bd f3 2f ee bd
       0.19081047 0.03211729 -0.09749074 -0.11630239
000010 f7 71 15 bd ed 81 b6 bd c5 64 7b be cc 0d 1f be
       -0.03648564 -0.089115 -0.2455016 -0.15532607
000020 df 2d 76 3d cf 15 11 be 68 b7 17 be 62 60 3a be
       0.06010234 -0.14168476 -0.14816058 -0.1820083
000030 06 aa 4a be 0f 9b 05 be 3c 14 89 bd 55 8c 64 3e
       -0.19791421 -0.13047431 -0.066933125 0.22319157
000040 b4 2e 3b 3e 21 c9 0f 3e ae d0 b0 3d 30 92 d2 bd
       0.18279535 0.14041568 0.086335525 -0.10281789
000050 32 2b 5c be b3 02 d1 3c 51 91 b0 3b 0b 0c 39 bd
       -0.21500853 0.025513982 0.005388417 -0.0451775
000060 bb 12 50 3d c4 18 18 3d c4 b3 67 be 7a 0b 85 3d
       0.050799113 0.037132993 -0.22627169 0.064963296
000070 6e 85 a6 3d f1 fb 4b be d9 2e fb bd 97 69 29 3d
       0.081309184 -0.19920327 -0.12264795 0.041360464
000080 16 6f 53 3e 94 7d fd 3d a2 6e 3f bd c4 7c 55 3e
       0.20647845 0.12377468 -0.046736367 0.20848376
000090 9b c5 15 3e cc 5c ac bd 60 2b 85 3e b6 23 af 3d
       0.14626162 -0.08416137 0.26009655 0.08551733
0000a0 71 1e 53 be 65 18 8a 3e ad 8e d2 3b 87 00 22 be
       -0.20617081 0.26971737 0.0064256997 -0.15820514
0000b0 91 3f 8c be 61 d9 f7 bd ca eb a9 bc e2 03 05 3e
       -0.27392247 -0.121020086 -0.020742316 0.12989762
0000c0 74 fa 12 be 5a 2d 75 3e c0 c3 d9 bd 97 83 10 bd
       -0.14353353 0.23943081 -0.106330395 -0.035281744
0000d0 d8 bf 2c 3d 3a b9 1d be cf 25 3b 3e 78 4d 90 3d
       0.042175144 -0.1540269 0.18276142 0.07046026
0000e0 6e d0 5c be b7 3f 2c bd bf 94 17 be fb 78 71 3c
       -0.21563885 -0.04205295 -0.14802836 0.014738317
0000f0 a6 85 54 bb 3c cf 43 3e 7b 9f cc bd 50 51 69 3d
       -0.0032428293 0.19122022 -0.09991356 0.05696231
000100 62 e3 33 3e 82 67 c6 3d 0d bb 6c 3e 8b 06 01 3e
       0.17567208 0.09687711 0.23118229 0.12600152
000110 96 b8 25 be 63 9d 2f be ad 66 17 be 20 0c d2 bd
       -0.16183695 -0.17149882 -0.14785261 -0.10256219
000120 fe 20 df 3c 8e 08 49 3d cf 2e e0 b9 d5 93 af bb
       0.027237412 0.049080424 -0.00042759484 -0.005358199
000130 2c 77 22 3e 64 2c 13 be bf e4 2b bc 2e 8e 1d 3e
       0.15865773 -0.14372402 -0.010491549 0.15386268
000140 c3 3b 24 be 02 c3 02 be 48 32 3e 3e 02 d6 ff 3d
       -0.16038422 -0.12769702 0.18573868 0.124919906
000150 72 0f e1 3d f1 38 0e bc d8 52 e7 3c c8 ea 89 bd
       0.10989274 -0.008680568 0.028237745 -0.06734234
000160 b2 e4 85 be 0f 1f 46 be 96 c5 b7 3d 92 c1 fd 3c
       -0.26151043 -0.19347785 0.089732334 0.03097609
000170 fc 43 09 bd a9 da 3f 3e 65 30 34 be ab 2c f3 bd
       -0.0335121 0.18735756 -0.17596586 -0.11873754
000180 4f d3 0f 3d 16 7c ee bd df cc 00 be b1 6c eb bc
       0.03511363 -0.11644761 -0.12578152 -0.028738352
000190 4b 98 3f be ee a8 0d be da 80 5d be 2f 39 c4 3d
       -0.18710439 -0.13833973 -0.21631184 0.095812194
0001a0 ff 38 a8 bd 85 53 3c 3e 58 4b 46 3e 7f f8 56 3e
       -0.08213996 0.18391235 0.19364679 0.20993231
0001b0 2c 71 20 bc 1b 3b 1c 3e c0 bc 20 bc 26 e9 81 3b
       -0.009792607 0.15256922 -0.0098106265 0.003964561
0001c0 8a 6f 36 be fe 58 45 be a1 6a 16 3e cc 66 ce bd
       -0.17815986 -0.19272229 0.14689113 -0.10078201
0001d0 57 89 06 be e9 1f 00 3e 80 69 ca 3d 2b 5d f7 3d
       -0.13138328 0.12512173 0.09883404 0.12078317
0001e0 42 98 df 3d c8 c1 f3 3d 5f df fb bd 9f ae ff 3d
       0.10917713 0.11902195 -0.12298464 0.12484478
0001f0 24 df 12 3e 0e 10 43 be b8 dd 36 be cb 62 4d 3e
       0.14342934 -0.19049093 -0.17858016 0.20057218
000200 d4 b6 78 be 01 b0 9f bd 27 32 2c be 96 78 31 3e
       -0.24288493 -0.07797242 -0.16816007 0.17331156
000210 1a 20 36 3e 12 43 0a 3d 7f 09 0c 3e 88 58 20 be
       0.17785683 0.03375537 0.13675497 -0.15658772
000220 e2 58 13 3e 8d 76 d7 3d 7b 64 8d 3d 92 a9 88 3d
       0.14389375 0.10520659 0.06903931 0.06672968
000230 d5 e6 a1 bd 25 dd 09 be 4c b0 2a be b8 25 05 be
       -0.07905356 -0.13463266 -0.16668814 -0.1300267
000240 7b fe 58 be 8f 85 ef bd b2 2d bf bd 17 a6 f7 3d
       -0.21190827 -0.11695396 -0.093348876 0.12092226
000250 23 5b 23 3d 77 b6 f6 3d 35 4f ce bd 6a f6 96 3d
       0.039881837 0.12046521 -0.10073701 0.073712185
000260 d6 ae 5a be 42 7e 63 3e 3f 64 16 be c7 fc c8 3d
       -0.21355757 0.22216132 -0.14686678 0.098138385
000270 1c a6 0f 3e 1e 98 a3 3e cb 2e 4a bd bc b4 03 3e
       0.1402821 0.31951994 -0.04936103 0.12861913
000280 f4 eb 51 3e 07 49 1b 3e b8 86 32 be da 51 ed bd
       0.20500165 0.15164576 -0.17434204 -0.115878776
000290 67 29 83 be 4f 88 7c be 48 90 30 be c0 4e e9 3d
       -0.25617525 -0.24661373 -0.17242539 0.113919735
0002a0 b6 b5 74 bd e4 5d 4a 3e b0 7f 63 bd 5b 02 1e be
       -0.059743606 0.19762379 -0.055541694 -0.15430586
0002b0 d4 44 65 3d ee 19 66 be 0a 88 6f 3d c3 0f 23 be
       0.055973843 -0.22470829 0.058479346 -0.15923981
0002c0 a5 d0 65 bd ff 93 78 ba 75 d0 30 3c 1e 8b 11 3e
       -0.056107182 -0.00094825024 0.0107918875 0.14213225
0002d0 7e c8 b8 3d ab 1d f1 3d 40 ea 19 bd 02 79 2e bd
       0.09022616 0.11773237 -0.037576914 -0.04259587
0002e0 72 d1 9c 3b 8c c6 5c 3e 8f 61 44 be 7e 5f 5f 3d
       0.00478571 0.21560115 -0.1917784 0.054534428
0002f0 79 cd 03 3e 7a d5 0a 3e 05 65 e5 bd 16 5e c9 3c
       0.1287135 0.13557997 -0.112009086 0.024580996
000300 ee 07 3f be bc 49 c5 bd 49 73 4b 3e c6 c9 3c 3d
       -0.18655369 -0.09633204 0.19868197 0.046090864
000310 02 a3 02 be f6 53 e0 bd 10 22 77 3d f4 d7 6a bd
       -0.12757495 -0.10953514 0.06033522 -0.057334855
000320 e2 49 e9 bd 4a 3a 16 3e e5 a6 2a 3e 78 89 05 3e
       -0.11391045 0.14670673 0.16665228 0.13040721
000330 44 c1 2a 3e fe 0d 6c 3e b3 78 7b 3e 68 88 2a 3d
       0.16675287 0.23052213 0.24557762 0.041633993
000340 09 bd 9d bd 90 0a f1 bc ce 16 c9 3d 5b c6 c0 3d
       -0.07702071 -0.029423982 0.09818803 0.09412833
000350 a5 f7 73 3e 5b 09 c4 bd 09 f3 15 be 0c 25 8e 3d
       0.23824938 -0.09572097 -0.14643492 0.0694066
000360 4e e6 80 be 76 11 4f be 86 c8 53 be c2 77 eb bd
       -0.2517571 -0.20221505 -0.20681962 -0.11497451
000370 65 8f cb 3c 25 7b 18 be d8 69 49 be 9a b4 25 be
       0.02484865 -0.14890726 -0.19669282 -0.16182175
000380 99 f3 b4 3c e5 39 63 bb 29 6a 84 be 25 1f 02 be
       0.022088813 -0.003467196 -0.25862244 -0.12707193
000390 b1 89 fe bc c8 6c 9f 3d 46 a3 13 3e 4f 56 9f bd
       -0.031071516 0.0778442 0.14417753 -0.07780134
0003a0 dd aa 8e bd b6 1f 36 3e 59 7f 52 bd 86 02 df bc
       -0.06966183 0.17785534 -0.05139098 -0.027222883
0003b0 82 84 df 3d 8b 63 2b bd a7 99 da 3d 82 41 8b 3e
       0.10913946 -0.04184298 0.10673838 0.27198416
0003c0 3c ca 65 be 09 c6 70 be bb 42 49 bd f2 95 46 3e
       -0.22440428 -0.23513044 -0.049135905 0.19393137
0003d0 20 3c 5a be b1 9c d3 3d f8 12 0d be e5 b6 37 be
       -0.21311998 0.10332621 -0.13776767 -0.17940862
0003e0 39 11 68 be b3 59 0b be 6c 04 31 be b3 34 cb bd
       -0.2266282 -0.13608436 -0.17286843 -0.09922161
0003f0 86 31 d8 bd 53 f0 1e 3d 72 43 1f 3e de e5 dd 3c
       -0.10556321 0.03880341 0.15553072 0.027087148
