drawing_nn/assets/converted_model.tflite (tflite, 424756 bytes, 8 tensors)

conv2d_1/Conv2D_bias f4 [6]
0	0x3d79634b	0.06088571
1	0xbd873fe0	-0.0660398
2	0xbd050b0c	-0.03248124
3	0xbdafd388	-0.08585268
4	0xbdbc97e9	-0.09208662
5	0xbd8efde5	-0.0698202

conv2d_1/kernel f4 [1, 3, 3, 6]
0	0x3e844a09	0.25837734
1	0x3e95e21b	0.29274067
2	0x3e81f819	0.25384596
3	0x3e1b3af8	0.15159214
4	0xbd86941f	-0.065712206
5	0x3d9d3747	0.07676559
6	0xbcf9ef2e	-0.030509558
7	0x3d273665	0.04082336
8	0x3d9fd658	0.07804555
9	0x3ea12c24	0.3147899
10	0x3dbd3c24	0.092399865
11	0xbeaeecdd	-0.34165087
12	0xbed55809	-0.41668728
13	0xbda682d8	-0.08130425
14	0xbe4b52b5	-0.19855769
15	0xbe794377	-0.24342142
16	0x3ec60981	0.38679126
17	0xbdf8343b	-0.12119337
18	0x3e3195cf	0.17342304
19	0x3e6d77f5	0.23190291
20	0xbe0f71ce	-0.14008257
21	0x3d88c544	0.066782504
22	0x3ea31eb9	0.31859377
23	0x3eba0f5c	0.36339843
24	0x3e158c2f	0.14604257
25	0x3da53637	0.08066981
26	0xbc8982ae	-0.016785946
27	0x3e2703fe	0.16310117
28	0x3df3b277	0.11899274
29	0x3de4da3d	0.11174438
30	0xbec45d04	-0.38352215
31	0x3e676ce9	0.2260014
32	0xbe8b7668	-0.27238774
33	0x3e4ef0c2	0.2020903
34	0x3e8d27a8	0.27569318
35	0xbea54c1b	-0.32284626
36	0x3d9cd556	0.07657878
37	0xbda31676	-0.079632685
38	0x3eab24a0	0.3342638
39	0x3e2f0185	0.17090423
40	0x3e6094e0	0.21931791
41	0xbe6684e0	-0.22511625
42	0x3e3125fa	0.17299643
43	0x3ea572aa	0.32314044
44	0x3ed90b22	0.42391306
45	0x3ea20744	0.31646168
46	0x3d847125	0.06466893
47	0x3ef1ae25	0.47203174
48	0xbee8f262	-0.45497423
49	0xbc5d2f76	-0.013500085
50	0x3e72a919	0.23697318
51	0x3e3a3328	0.18183577
52	0xbea32901	-0.3186722
53	0xbd1616ec	-0.036642954

conv2d_2/Conv2D_bias f4 [32]
0	0x3cbc577d	0.022990936
1	0xbdcd662f	-0.100292556
2	0xb6747380	-3.6426063e-06
3	0x3e08e5b5	0.13368876
4	0xbdd199b4	-0.10234395
5	0xbd68a4b3	-0.056797694
6	0xbdea0785	-0.114272155
7	0xbdefd154	-0.11709848
8	0xbdfcbb4e	-0.12340413
9	0xbd986405	-0.07440952
10	0xbdfd8302	-0.123785034
11	0xbe32f9cd	-0.17478104
12	0xbdf8942c	-0.121376365
13	0xbd5b104f	-0.05348235
14	0x3d34a6dd	0.044104446
15	0xbdc53293	-0.09628787
16	0x3c0374f6	0.008023491
17	0xbe11b543	-0.14229302
18	0xbe1ad8f7	-0.15121828
19	0xbdac050a	-0.083993986
20	0x3e0d3bd7	0.13792358
21	0xbe1b7590	-0.15181565
22	0xbdef24c8	-0.11676937
23	0xbdb01c4b	-0.085991465
24	0xbdce3bd4	-0.10070005
25	0xbb26411a	-0.0025368393
26	0x3ddbc7f3	0.10731497
27	0x3d7cf95b	0.06176124
28	0xbdf0ce7f	-0.11758136
29	0xbdce9ba7	-0.10088282
30	0xbcf056f3	-0.029338336
31	0x3d11e1d4	0.035615757

conv2d_2/kernel f4 [32, 3, 3, 6]
0	0xbdefc8d8	-0.1170823
1	0xbcf5eda7	-0.030020548
2	0xbe2a8491	-0.16652133
3	0x3bac43fa	0.005257127
4	0xbcdd5e92	-0.027022634
5	0xbe5ed6de	-0.21761653
6	0xbdafb860	-0.085800886
7	0xbc250c0e	-0.010073675
8	0xbc96f180	-0.018425703
9	0x3c271e34	0.010200072
10	0x3dea2b19	0.114340015
11	0x3d2cb08e	0.042160563
12	0x3d9b458b	0.07581624
13	0x3e55a336	0.20863041
14	0x3de66360	0.11249423
15	0x3e195546	0.14973935
16	0xbcdbb73b	-0.02682077
17	0x3cfddaa8	0.030988052
18	0xbe06cec4	-0.13164812
19	0xbe91c706	-0.28472155
20	0xbe1fcd38	-0.15605628
21	0xbe88fb6d	-0.26754323
22	0xbe1a2c07	-0.15055858
23	0xbe8f7957	-0.28022262
24	0x3c62a773	0.013833868
25	0xbe30ff44	-0.17284876
26	0xbdb9a02f	-0.09063756
27	0xbdbd2ed6	-0.09237449
28	0xbd8490be	-0.0647292
29	0xbc86097f	-0.01636195
30	0x3e719182	0.23590663
31	0x3dd9b946	0.10631041
32	0x3e2c81d1	0.16846396
33	0xbae83558	-0.0017716093
34	0xbc7426d5	-0.014901836
35	0x3e85d808	0.2614138
36	0xbd331c8a	-0.04372839
37	0xbe1668f5	-0.14688475
38	0xbe1fd42a	-0.15608278
39	0xbe8a9673	-0.2706791
40	0xbdb9ac95	-0.090661205
41	0x3b474ebc	0.003041192
42	0xbdea120b	-0.11429223
43	0xbe746827	-0.23867856
44	0xbe7b8b8e	-0.24564955
45	0xbcf28d6d	-0.029608453
46	0x3c1e13a3	0.009648236
47	0xbd1e2b06	-0.03861525
48	0x3e8119aa	0.25214893
49	0x3d4c4010	0.049865782
50	0xbd8152cc	-0.063146204
51	0x3d965192	0.07339777
52	0xbda3d923	-0.080004
53	0x3db3e05a	0.08783026
54	0x3dc3a9e4	0.095538884
55	0x3c21902f	0.009861036
56	0x3d7ba8b4	0.061440185
57	0x3dd70954	0.10499826
58	0x3dcf3904	0.10118297
59	0x3dd66b87	0.10469728
60	0x3e012f43	0.12615685
61	0x3d0ab211	0.033861224
62	0xbc8ac4f1	-0.016939612
63	0xbe0280e6	-0.12744483
64	0x3c73e30a	0.014885673
65	0x3dcf3ef3	0.101194285
66	0xbe135d68	-0.143911
67	0xbe4d71e4	-0.20062977
68	0xbd62e863	-0.055397402
69	0xbe11ada8	-0.14226401
70	0xbddc9b29	-0.10771782
71	0x3d379e71	0.044828836
72	0x3e1d628c	0.15369624
73	0xbcd9b1a2	-0.02657396
74	0x3d342df8	0.04398915
75	0x3d136b8d	0.03599124
76	0xbd20e7f6	-0.039283715
77	0x3d2800bd	0.04101633
78	0xbda60256	-0.08105914
79	0xbc303dee	-0.010756953
80	0x3d829354	0.06375757
81	0x3daead33	0.08529129
82	0xbd8d3574	-0.06894961
83	0x3db2b7e1	0.08726478
84	0x3d6eb9f7	0.05828282
85	0x3c33b2ce	0.010967923
86	0x3d918f54	0.07107416
87	0xbd6300cb	-0.055420678
88	0xbdcd3836	-0.10020487
89	0x3e07ac68	0.13249362
90	0x3c5959b2	0.013266014
91	0xbd9c164d	-0.07621441
92	0x3d590f36	0.052993022
93	0xbe01d879	-0.12680234
94	0x3db57f15	0.088621296
95	0x3df2cf82	0.11855985
96	0x3dcfeffb	0.101531945
97	0x3d9ea074	0.07745448
98	0xbdde0ebb	-0.10842653
99	0x3d3d1c79	0.04616973
100	0xbdb8ca59	-0.0902297
101	0x3e1ae1cf	0.15125202
102	0x3dc89e77	0.0979585
103	0x3d858170	0.06518829
104	0x3d0bdd7f	0.034146782
105	0x3d76989e	0.06020414
106	0xbdbf901b	-0.09353658
107	0x3e6bacba	0.23015109
108	0xbdb655d8	-0.08903092
109	0xbe940167	-0.2890732
110	0xbe3cd667	-0.18441163
111	0xbde2a55c	-0.11066696
112	0xbe868adb	-0.26277813
113	0xbe787770	-0.24264312
114	0x3d3ba13c	0.045808062
115	0xbe0e3f47	-0.13891326
116	0xbe5ea5bd	-0.21742912
117	0xbde0db89	-0.10979373
118	0xbdbb59e6	-0.09148006
119	0x3c74b579	0.014935845
120	0x3e69a14c	0.22815436
121	0x3dc71ed9	0.097226806
122	0xba4d074d	-0.00078212173
123	0xbceabaa7	-0.028653456
124	0x3d32d835	0.043663222
125	0xbdad7f6f	-0.08471572
126	0xbe6b8c95	-0.23002847
127	0xbe4184e0	-0.18898344
128	0xbd5d402f	-0.05401629
129	0xbe2345e7	-0.15944634
130	0xbe477d94	-0.19481498
131	0xbd8bd31b	-0.068273745
132	0x3bbd83f6	0.0057835532
133	0x3c2b4c08	0.010455139
134	0xbdc721a5	-0.09723214
135	0xbd191a6b	-0.03737871
136	0xbe094f34	-0.1340912
137	0x3d196fc4	0.037460104
138	0x3dcef099	0.10104484
139	0x3e178037	0.14795004
140	0x3db22a3c	0.08699462
141	0x3e29d26a	0.16584173
142	0xbd9f31c4	-0.07773164
143	0x3db55a82	0.088551536
144	0xbdc75502	-0.09733011
145	0x3d9d1b51	0.07671226
146	0x3dd8c8ad	0.10585151
147	0xbdee4aa3	-0.116353296
148	0x3dbfd096	0.093659565
149	0xbe4119b8	-0.18857467
150	0xbdc9a82c	-0.09846529
151	0xbd48dfea	-0.049041666
152	0x3e039940	0.12851429
153	0x3c689269	0.014195063
154	0x3d59fe51	0.05322105
155	0xbe12cb84	-0.14335448
156	0xbd7920aa	-0.060822167
157	0x3e135ad2	0.14390114
158	0x3dc39159	0.09549207
159	0x3dd2ea07	0.102985434
160	0x3dfb36db	0.12266322
161	0xbd0197ab	-0.031638782
162	0x3da86859	0.08223028
163	0xbe0a7f2f	-0.13525079
164	0xbdb6d346	-0.08927016
165	0xbe022ecd	-0.12713166
166	0xbda2824b	-0.07935008
167	0xbc8995bf	-0.016795037
168	0xbdb2cf9b	-0.08731004
169	0xbe741baa	-0.23838678
170	0xbe6865f0	-0.22695136
171	0xbe873776	-0.264095
172	0xbe615431	-0.22004773
173	0xbdec3977	-0.11534398
174	0x3d2db734	0.042411044
175	0x3d77cd63	0.060498606
176	0xbe251d67	-0.16124497
177	0xbd79d5c5	-0.060994882
178	0x3d1bf3d6	0.038074337
179	0x3d998669	0.0749634
180	0x3db55301	0.08853722
181	0x3dec6ea6	0.11544542
182	0x3e0077f6	0.12545761
183	0x3e0163cc	0.12635726
184	0x3d81fbfe	0.06346892
185	0x3e615cd1	0.22008063
186	0xbc885d35	-0.016646007
187	0xbe0baee1	-0.1364093
188	0xbe2bd9bb	-0.16782276
189	0xbe565814	-0.20932037
190	0xbdd33d65	-0.103144445
191	0xbe1ae794	-0.15127403
192	0x3da15af3	0.07878675
193	0xbdb378ce	-0.08763276
194	0xbd804a07	-0.062641196
195	0xbe167e59	-0.14696635
196	0x3ca46665	0.020068357
197	0xbe0c84e5	-0.1372257
198	0x3e098eea	0.13433424
199	0x3e671d8b	0.22569863
200	0x3e02edce	0.12786028
201	0x3d90df50	0.070738435
202	0xbc30e322	-0.01079634
203	0x3e1935c9	0.14961924
204	0x3dcd0754	0.10011163
205	0x3d97dcfb	0.074151956
206	0x3d478855	0.048714
207	0xbddf5e12	-0.10906614
208	0xbd0c49bc	-0.034250006
209	0x3e923a9a	0.28560334
210	0x3d61962b	0.055074852
211	0x3b9dd9a0	0.0048172027
212	0xbe29450c	-0.16530246
213	0xbdb85647	-0.09000831
214	0xbe0bbdd1	-0.13646628
215	0xbdabd82b	-0.0839084
216	0xbe815e12	-0.25267082
217	0x3dc5efe6	0.096648976
218	0x3d8cac3c	0.068687886
219	0x3c0488a9	0.008089223
220	0xbd3637c4	-0.044486776
221	0xbdef0b31	-0.116720565
222	0xbe495b06	-0.19663629
223	0x3da119ca	0.07866247
224	0x3dbfb8f7	0.09361451
225	0x3a326dd6	0.0006806528
226	0x3d9f753a	0.07786031
227	0x3d7aae78	0.061201543
228	0xbe4727f0	-0.19448829
229	0x3ddda41e	0.108223185
230	0x3da56a6c	0.08076939
231	0x3e05b64e	0.13057825
232	0xbdd41a4d	-0.10356579
233	0xbdc95138	-0.09829944
234	0xbdfe87da	-0.124282554
235	0x3b165083	0.0022936172
236	0x3d203406	0.039112113
237	0xbd9a1e0f	-0.075252645
238	0x3de8486f	0.113419406
239	0xbc3aed71	-0.0114091495
240	0xbe24f37b	-0.16108505
241	0x3e0ca4ba	0.13734713
242	0x3d36202f	0.044464286
243	0x3d841288	0.06448847
244	0x3df0f37b	0.1176519
245	0xbe1342fc	-0.14381021
246	0xbe608e7d	-0.21929355
247	0x3cf211d7	0.029549522
248	0xbd98cb45	-0.074606456
249	0x3d4541cb	0.04815845
250	0x3e0d3345	0.13789089
251	0x3c9b09fe	0.018925663
252	0xbda6a575	-0.08137027
253	0xbc313a04	-0.010817055
254	0x3d6fe928	0.058571965
255	0xbdb5e9e9	-0.088825054

dense_1/MatMul_bias f4 [128]
0	0xbb44cdfa	-0.0030029998
1	0xbcf4c3f3	-0.029878592
2	0xbcc7a6bd	-0.0243715
3	0xbd3059e8	-0.04305449
4	0xbbb3d710	-0.005488284
5	0xbcc57237	-0.024102313
6	0x3bc51bf7	0.0060152966
7	0x3ba2181d	0.004946722
8	0x3d365d09	0.04452232
9	0x3cb115ae	0.021616783
10	0x3d58c737	0.05292436
11	0x3c3a2b6f	0.011362894
12	0x3d2a45c9	0.04157046
13	0x3cc21801	0.023693087
14	0x3c0811af	0.008304997
15	0xbc96409e	-0.018341359
16	0x3bfb5a02	0.007670642
17	0xbc9c7a74	-0.019101359
18	0xbc8c1676	-0.017100554
19	0x3c3b98aa	0.011449972
20	0x3c59cfed	0.013294202
21	0xbd47ce4b	-0.04878072
22	0xbc114cac	-0.008868378
23	0x3cd13519	0.025538014
24	0xbb586bbe	-0.0033023204
25	0xbb9302e6	-0.0044864295
26	0xbd17978f	-0.037009772
27	0xbd4f8339	-0.050662253
28	0xbc10443c	-0.008805331
29	0x3d05ee3a	0.032697894
30	0xbca88fd6	-0.020576399
31	0x3ce53802	0.027980808
32	0xbd25dd28	-0.040494114
33	0xbc513c0a	-0.012770662
34	0x3cbe2efa	0.02321576
35	0x3cb447b8	0.022006854
36	0x3ce46e1e	0.02788454
37	0x3b887054	0.004163781
38	0x3d04fdef	0.032468732
39	0xbd67141d	-0.056415666
40	0xbcd212ea	-0.025643785
41	0x3d1962d1	0.037447754
42	0x3d618935	0.05506249
43	0xbd24242b	-0.040073555
44	0x3d115d07	0.03548911
45	0x3a999147	0.001171627
46	0x3d27683d	0.040870894
47	0xbd19b9fb	-0.03753088
48	0x3c047cfa	0.008086437
49	0x3c44a435	0.012002041
50	0x3c952194	0.018204488
51	0xbd2fc2d5	-0.042910416
52	0x3d098b54	0.03358014
53	0xbd0a047a	-0.033695675
54	0xbc75c749	-0.015001127
55	0xbce49e55	-0.02790753
56	0x3d05dd31	0.032681648
57	0xba69a044	-0.0008912126
58	0xbc17ef07	-0.009273297
59	0xbd0d2f91	-0.03446919
60	0xbb16e632	-0.002302539
61	0xbc1e3729	-0.009656706
62	0xbcccacc6	-0.024984729
63	0xbcaa583b	-0.020794025
64	0x3c052a3a	0.008127743
65	0xbc85b667	-0.016322328
66	0x3c419471	0.011815176
67	0xbd173e54	-0.036924675
68	0x3cf82a0c	0.030293487
69	0xbcf7b3b6	-0.03023706
70	0x3d02d96c	0.03194563
71	0x3bcd8c5f	0.006272837
72	0x3bd0d6e3	0.0063732727
73	0x3caf37ba	0.021388877
74	0x37357e40	1.0817836e-05
75	0xbd54a675	-0.05191656
76	0xbb9c6fbb	-0.0047740615
77	0x3c2e8dd1	0.010653929
78	0x3beb23e4	0.0071759094
79	0x3d45e4d1	0.04831392
80	0x3cfd8123	0.030945366
81	0xbbcf838f	-0.0063328217
82	0xba0f631a	-0.00054697844
83	0xbbdf224b	-0.006809508
84	0xbbf0d636	-0.0073497547
85	0xbd0cc6d4	-0.034369305
86	0xbcb8626f	-0.022507874
87	0x3d3a3c7d	0.045467842
88	0xbd5128ce	-0.051064305
89	0xbba35e65	-0.004985618
90	0x3d6126ae	0.05496853
91	0x3c64ddfa	0.013968939
92	0x3d1818ac	0.037132904
93	0x3b1f786b	0.002433325
94	0xbc189915	-0.009313841
95	0xbd1ae887	-0.03781941
96	0x3c5fdac8	0.013663001
97	0x3cf35499	0.029703425
98	0xbd0b3be2	-0.033992656
99	0xbd0359aa	-0.032067932
100	0xbba807bc	-0.005127875
101	0x3c4290db	0.011875357
102	0x3a3a3008	0.0007102494
103	0xbba30db6	-0.0049759997
104	0x3b2ee9ca	0.0026689642
105	0xbc850abf	-0.016240476
106	0x3cd68242	0.026185159
107	0x3cbd14ec	0.023081265
108	0xbd038a31	-0.03211421
109	0xbd643f84	-0.055724636
110	0xbb406c75	-0.002936152
111	0x3d25881c	0.040413007
112	0x3d82bc4b	0.0638357
113	0x3c86cbff	0.016454695
114	0xbc828f5a	-0.015937496
115	0x3d2f8d57	0.0428594
116	0xbd46272a	-0.048377194
117	0x3cc51592	0.024058137
118	0xbcc5d408	-0.024148956
119	0xbb828245	-0.0039828145
120	0xbbaca534	-0.005268717
121	0x3c99b323	0.018762177
122	0x3c3e22ee	0.011605008
123	0xbd2345d7	-0.039861526
124	0xbc708bce	-0.01468177
125	0xbc5f5275	-0.013630499
126	0xbd30837f	-0.043094154
127	0x3d0b15d2	0.033956356

dense_1/kernel/transpose f4 [128, 800]
0	0x3d342b46	0.04398658
1	0x3d1b9e59	0.03799281
2	0xba88d2a6	-0.0010438755
3	0x3b6c1f75	0.0036029492
4	0x3c6d7b0d	0.01449467
5	0x3d221cc3	0.03957821
6	0x3d248f3f	0.040175673
7	0x3aa14be5	0.0012305944
8	0x3de2c126	0.110719964
9	0x3d36ab78	0.04459712
10	0x3da05ddc	0.07830402
11	0x3dc05f02	0.09393121
12	0x3d5127b0	0.05106324
13	0x3d1ec746	0.03876426
14	0x3dccf244	0.10007146
15	0x3e46e132	0.19421843
16	0x3d883545	0.06650785
17	0x3e1ecc07	0.15507518
18	0xbc8faf1e	-0.017539557
19	0xbc490007	-0.012268073
20	0x3bc40e11	0.005983122
21	0x3e056e4c	0.13030356
22	0xbd4dd749	-0.05025414
23	0xbcfbdea2	-0.030745808
24	0x3d905e65	0.07049254
25	0xbb1acda4	-0.0023621107
26	0xbd3cf141	-0.046128515
27	0xbd32adbb	-0.043622714
28	0x3e054d2f	0.13017724
29	0x3dc137c7	0.09434467
30	0x3d0dbef0	0.03460592
31	0x3d4860a2	0.04892028
32	0x3ca5d351	0.020242365
33	0xbccb9aa4	-0.024854012
34	0xbcb64967	-0.022251798
35	0x3c694581	0.014237762
36	0xbbf43141	-0.0074521606
37	0x3cf1a1a1	0.029496016
38	0x3c3e6a14	0.011621971
39	0x3cc05718	0.02347903
40	0x3d80e32e	0.06293331
41	0xbd82d666	-0.063885495
42	0x3d85839e	0.065192446
43	0x3d2802c9	0.04101828
44	0x3ceff8ea	0.029293496
45	0xbd9c857b	-0.07642647
46	0x3db441ba	0.08801599
47	0xbd14e9c6	-0.036355756
48	0xbd8de53a	-0.06928487
49	0xbd7e97ac	-0.062156364
50	0x3d537e2e	0.051634006
51	0xba9d1a39	-0.0011985964
52	0xbc511838	-0.012762122
53	0x3d9af400	0.075660706
54	0x3c42e889	0.011896261
55	0x3dafef59	0.08590574
56	0xbd60e41a	-0.054905035
57	0x3d1219f2	0.035669275
58	0x3c0c971d	0.00858095
59	0xbd62d58c	-0.055379435
60	0xbda073b4	-0.078345686
61	0x3dcfb462	0.10141827
62	0x3da926bd	0.08259342
63	0x3dc678ff	0.09691047
64	0xbdd67984	-0.10472396
65	0x3c863ebb	0.016387334
66	0xbd6130ce	-0.054978184
67	0xbd9c5fac	-0.076354355
68	0x3d0d40c5	0.034485597
69	0x3c7525d9	0.014962637
70	0x3d1b631f	0.037936326
71	0xbd7e1503	-0.062031757
72	0x3c8e14ff	0.017343996
73	0xbce81ba5	-0.028333494
74	0x3d798fee	0.060928278
75	0x3cd9806c	0.026550494
76	0x3cfd725a	0.030938316
77	0xbd54eaa2	-0.051981576
78	0x3cf17c5b	0.029478243
79	0xbd109520	-0.035298467
80	0x3d1b91d6	0.037980877
81	0xbc3f2f9a	-0.011669064
82	0xbc2feeb0	-0.01073806
83	0x3c0ec881	0.008714796
84	0xbce697a6	-0.028148483
85	0x3d5bbf0a	0.053648986
86	0x3c933749	0.017970698
87	0x3d6e607d	0.058197487
88	0xbcab17bb	-0.020885339
89	0x3c570187	0.013122923
90	0x3bcd44ff	0.0062643285
91	0x3c218705	0.009858851
92	0xbdb0e09a	-0.08636589
93	0xbca2f868	-0.01989384
94	0x3c36da90	0.011160508
95	0xbd690efd	-0.05689906
96	0xbdbc9788	-0.0920859
97	0xbbe8303c	-0.007085828
98	0xbbf03410	-0.007330425
99	0xbcb2be9c	-0.021819405
100	0x3c2c44c3	0.010514441
101	0x3b88b9b9	0.0041725305
102	0xbd6a7a31	-0.057245437
103	0x3d41f7f3	0.047355603
104	0x3d126653	0.035742115
105	0x3d8fc69b	0.07020303
106	0x3d7d20ac	0.061798736
107	0xbca77aab	-0.020444235
108	0xbdafbd14	-0.08580986
109	0xbc625406	-0.013813978
110	0xbc89382c	-0.016750418
111	0xbd4da7ae	-0.05020874
112	0x3d15a961	0.036538485
113	0xbd59f1ae	-0.053209
114	0x3d8df9e3	0.06932428
115	0xbdc9ac16	-0.09847276
116	0xbb412b12	-0.0029475135
117	0x3d77488a	0.060371913
118	0x3d6bc9a4	0.057565346
119	0x3b15ce6a	0.0022858628
120	0x3b803103	0.0039120927
121	0x3d85343d	0.06504104
122	0xbd20add6	-0.039228283
123	0x3c383cc4	0.011244956
124	0xbd4db75e	-0.0502237
125	0xbcee3ff1	-0.029083224
126	0x3da9d55a	0.08292647
127	0xbda873ae	-0.08225189
128	0xbdebb04c	-0.11508235
129	0xbdab79d8	-0.08372849
130	0x3df33df3	0.1187705
131	0x3b0d830a	0.0021592998
132	0x3da04496	0.07825582
133	0x3d344000	0.044006348
134	0x3cb23754	0.021754898
135	0x3d57a78c	0.05265002
136	0x3d27b684	0.040945545
137	0x3cb4f2cc	0.02208843
138	0x3c8ecfe9	0.017433124
139	0x3b503c00	0.0031774044
140	0x3cac22c9	0.02101268
141	0x3d2ae4fd	0.041722286
142	0x3b4c948c	0.003121647
143	0xbd00f7bd	-0.03148626
144	0x3d185460	0.03718984
145	0xbd01e934	-0.03171654
146	0x3c2a4554	0.010392506
147	0x3dcd287a	0.10017486
148	0xbaed836e	-0.0018120834
149	0x3b9927b1	0.004673921
150	0x3dbf1aca	0.093312815
151	0xba93622f	-0.0011244471
152	0x3ce632b3	0.028100347
153	0x3df7985d	0.12089608
154	0xbbcbce5e	-0.0062196692
155	0x3d8a3d60	0.067499876
156	0xbd2fb1d6	-0.042894207
157	0xba40337d	-0.0007331891
158	0xbd7ca082	-0.06167651
159	0xbd8458c7	-0.064622454
160	0x3ddb871b	0.10719129
161	0x3cd5fe8b	0.026122352
162	0xbd5b251f	-0.0535022
163	0x3d5dac0c	0.054119155
164	0x3d665efe	0.056242935
165	0x3b3b797e	0.002860635
166	0x3d7f35a6	0.062307023
167	0x3d8ec974	0.06972018
168	0x3dc4ebb1	0.09615267
169	0x3d59a9f2	0.053140588
170	0x3d784e59	0.060621593
171	0x3c04b1bc	0.008099016
172	0xbcdafda1	-0.026732268
173	0xbd03699f	-0.03208315
174	0xbd9f2418	-0.07770556
175	0xbd23e86f	-0.040016588
176	0x3d185a61	0.037195567
177	0xbd44c2e4	-0.048037425
178	0x3d630480	0.055424213
179	0x3bd8a660	0.0066116303
180	0x3d8c0ae5	0.068380155
181	0x3d9187bd	0.07105968
182	0xbc99328c	-0.01870086
183	0xbd4d6220	-0.050142407
184	0xbc86b126	-0.016441893
185	0x3d10a7d4	0.035316303
186	0xbe00b174	-0.12567693
187	0xbd255a8a	-0.040369548
188	0x3d2cffb3	0.04223604
189	0x3be4c596	0.006981562
190	0xbd8860b5	-0.066590704
191	0x3da15fa7	0.07879572
192	0xbc72fe4d	-0.014831138
193	0x3cdeec39	0.02721225
194	0x3b197f00	0.0023421645
195	0xbc8d309b	-0.017235091
196	0x3d10267d	0.035192955
197	0x3d375221	0.04475606
198	0x3de892cb	0.113561235
199	0xbabe9975	-0.0014541583
200	0x3d36fe3d	0.044676054
201	0xbb53ba2e	-0.0032307017
202	0xbd1c6a66	-0.038187407
203	0xbcb3d026	-0.021949839
204	0xbdbd4800	-0.092422485
205	0x3ced1be8	0.02894397
206	0x3c001507	0.007817513
207	0x3bd07a65	0.006362247
208	0x3e08e73b	0.13369457
209	0xbdad1d16	-0.08452813
210	0x3d928486	0.07154183
211	0x3cf4fd6e	0.029906001
212	0xbd4a07be	-0.04932379
213	0x3d855d19	0.065118976
214	0x3e0a76c6	0.13521871
215	0x3c6724e2	0.014107915
216	0xbd1d68d9	-0.03843007
217	0x3cfa8f09	0.030585783
218	0xbd4ce28d	-0.050020743
219	0xbb49ffc5	-0.0030822617
220	0xbcd8e179	-0.026474701
221	0x3d8ebd8f	0.06969749
222	0xbc27f4e6	-0.010251259
223	0x3e053039	0.13006677
224	0xbc055bb5	-0.00813954
225	0xbdabdb18	-0.08391398
226	0xbae1ff0b	-0.0017242146
227	0xbe0f5090	-0.13995576
228	0x3bc49c85	0.006000104
229	0x3d868f17	0.06570261
230	0x3da764f8	0.08173555
231	0x3d34f6ef	0.044180807
232	0xbc90a5e9	-0.017657237
233	0x3d30f930	0.043206394
234	0xbd1b26bb	-0.037878733
235	0x3cd8cdfc	0.026465409
236	0xb92b93b5	-0.00016362856
237	0xbb153402	-0.0022766595
238	0xbd2b043e	-0.041752093
239	0xbd34e85e	-0.044166915
240	0x3b3ae5c1	0.0028518292
241	0xbd8937f6	-0.06700127
242	0x3c96285f	0.018329797
243	0x3d8101e0	0.06299186
244	0x3c901d47	0.017592086
245	0x3da8ce4e	0.082424745
246	0xbd2644cc	-0.040592954
247	0xbc1bd5db	-0.009511436
248	0xbd91782d	-0.07103
249	0xbd27423a	-0.040834643
250	0x39fc0988	0.00048072287
251	0xbb602fbd	-0.0034208142
252	0xbd3a1f40	-0.04543996
253	0xbc0513fc	-0.00812244
254	0x3d1d14d0	0.038349926
255	0x3c8df2cb	0.017327687

dense_2/MatMul_bias f4 [10]
0	0xbd2bf323	-0.04197992
1	0xbd06fa5f	-0.032953616
2	0xbc98243c	-0.018571965
3	0xbca23cee	-0.019804444
4	0x3d161be6	0.0366477
5	0x3c6cac3b	0.01444536
6	0x3d438771	0.04773659
7	0xbcb35bae	-0.021894302
8	0x3d81215c	0.06305191
9	0xbc0b4c03	-0.008502009

dense_2/kernel/transpose f4 [10, 128]
0	0xbdf77e2f	-0.120846145
1	0xbded5b3c	-0.11589667
2	0x3ded5380	0.11588192
3	0x3e0fd630	0.1404655
4	0xbde2c2f6	-0.11072342
5	0x3e3f9aeb	0.1871144
6	0x3c3a6eb4	0.011378933
7	0x3dde4fa4	0.10855034
8	0x3d57259b	0.052526098
9	0xbe65e25c	-0.2244963
10	0xbc4b390c	-0.012403738
11	0xbda63f2d	-0.081175186
12	0xbde9c248	-0.11414009
13	0x3e12190e	0.1426737
14	0xbda21831	-0.079147704
15	0x3d29c932	0.04145164
16	0x3b095342	0.0020954167
17	0xbd009b86	-0.03139832
18	0xbddba359	-0.107245155
19	0xbe0120f6	-0.1261023
20	0xbe1eb0cb	-0.15497129
21	0x3e599a6c	0.21250314
22	0xbd887512	-0.066629544
23	0xbd918238	-0.071049154
24	0xbe41fc96	-0.1894401
25	0x3d978f0c	0.07400331
26	0xbdef23e2	-0.11676766
27	0x3df274ee	0.11838709
28	0x3e29de4e	0.16588709
29	0xbbbf175e	-0.005831643
30	0xbe2b31b5	-0.1671818
31	0x3c46befd	0.012130496
32	0x3e054119	0.13013114
33	0x3bcb31a0	0.006200984
34	0xbe86ac46	-0.2630331
35	0xbe5d1c2f	-0.21592782
36	0xbe579c13	-0.21055631
37	0xbe5c08db	-0.21487753
38	0xbe56f5ce	-0.20992205
39	0x3e43aadf	0.19108151
40	0x3e0707d2	0.13186577
41	0xbc192578	-0.009347312
42	0xbdbdd8f0	-0.09269893
43	0x3e43a42d	0.19105597
44	0x3d325b7b	0.043544274
45	0xbdbdfa39	-0.09276242
46	0xbdf6bf51	-0.120482095
47	0x3e37ce28	0.17949736
48	0xbe8dde5c	-0.2770871
49	0xbe2f7ef9	-0.1713828
50	0xbe25efc9	-0.16204752
51	0x3e022f9b	0.12713473
52	0xbe6e207b	-0.23254578
53	0x3e11395a	0.14182034
54	0xbdd67443	-0.10471394
55	0x3b3f7c5e	0.0029218416
56	0xbe26e7d1	-0.16299368
57	0xbe451501	-0.19246294
58	0x3d9486d4	0.07252279
59	0x3e06505b	0.1311659
60	0x3d8fc508	0.070200026
61	0x3c8f0c2c	0.017461859
62	0xbdd14405	-0.10218052
63	0x3dff337c	0.12460992
64	0xbe086917	-0.13321339
65	0xbe4e9427	-0.20173703
66	0xbd6f1348	-0.058367997
67	0x3e58e560	0.2118125
68	0xbe04c25d	-0.12964769
69	0x3e00297f	0.1251583
70	0xbe6176d5	-0.22017987
71	0xbd27360c	-0.040823027
72	0xbe4e819a	-0.20166627
73	0xbde4db02	-0.11174585
74	0xbdb46ef9	-0.08810229
75	0x3dffb35c	0.12485382
76	0xbe3ddbd0	-0.18540883
77	0xbdedc199	-0.116091914
78	0xbe4a53a0	-0.19758463
79	0xbe87b784	-0.265072
80	0xbe610860	-0.21975851
81	0x3e201771	0.15633942
82	0x3be3c4b3	0.0069509386
83	0x3d1ec088	0.03875783
84	0x3e111511	0.14168192
85	0x3e7310ca	0.23736873
86	0x3e17c6b8	0.14821899
87	0xbe152173	-0.14563541
88	0x3dcc8cc0	0.099877834
89	0x3c8edf25	0.017440388
90	0xbdd70476	-0.10498898
91	0xbdd5197c	-0.104052514
92	0x3d0ec26d	0.034853388
93	0xbd190553	-0.037358593
94	0xbdf11af6	-0.117727205
95	0x3e35f4ca	0.17769161
96	0x3e28d269	0.16486515
97	0xbdfea5fa	-0.12434001
98	0x3d5f45bb	0.05450986
99	0x3e1ca8e1	0.15298797
100	0x3dac3e28	0.08410293
101	0xbaaf2c83	-0.0013364706
102	0x3d8972fb	0.06711384
103	0x3e1a0f4e	0.15044901
104	0xbdcf5dc7	-0.101253085
105	0x3e48592f	0.19565271
106	0xbe58acae	-0.21159622
107	0xbe8dcf6e	-0.2769732
108	0x3ddc3ea6	0.10754137
109	0x3dddbe5d	0.108273245
110	0xbd65d655	-0.056112606
111	0xbd99d832	-0.07511939
112	0xbe7b90fb	-0.24567024
113	0xbe4cd847	-0.20004378
114	0x3e1dd35f	0.15412663
115	0xbe4107c2	-0.18850616
116	0xbe01eab8	-0.12687194
117	0x3cdaec4e	0.026724007
118	0x3dabb907	0.083849005
119	0xbdbc5f2d	-0.09197841
120	0x3c36b84d	0.011152339
121	0xbe558260	-0.20850515
122	0xbd212c58	-0.03934893
123	0xbe7df418	-0.24800146
124	0xbe5ab1c9	-0.21356882
125	0x3e1714e1	0.14754058
126	0xbe13e448	-0.14442551
127	0xbd85cf41	-0.06533671
128	0x3d6a9a08	0.057275802
129	0x3dbf802e	0.0935062
130	0xbdf847a0	-0.121230364
131	0xbda2d24a	-0.07950266
132	0x3e34dc69	0.17662205
133	0x3df95d28	0.12175971
134	0xbdd24576	-0.10267155
135	0xbe284c72	-0.16435412
136	0xbd89223e	-0.06695984
137	0x3d06df1f	0.03292763
138	0xbe0a43fe	-0.135025
139	0xbe2112a1	-0.15729763
140	0x3e223590	0.15840745
141	0xbe768976	-0.24075875
142	0x3e1535c1	0.14571287
143	0x3e3d1546	0.18465146
144	0xbe7cac9c	-0.2467522
145	0x3e3ae94c	0.18253058
146	0x3d16b523	0.03679384
147	0x3cacb6bf	0.021083234
148	0xbdbf3b3d	-0.09337471
149	0x3df9d819	0.121994205
150	0x3e254d87	0.16142856
151	0x39038407	0.00012542318
152	0xbe841701	-0.257988
153	0xbd96cf82	-0.07363798
154	0xbbc691cd	-0.0060598613
155	0xbd7eadb7	-0.062177386
156	0x3e124e3b	0.14287655
157	0x3e36fc74	0.1786974
158	0x3e27a8c7	0.16372977
159	0xbe704a89	-0.23465933
160	0x3e1e78b8	0.15475738
161	0x3bc037c9	0.005866025
162	0x3dd28899	0.1027996
163	0xbd81e3c3	-0.0634227
164	0xbe2a9e50	-0.16661954
165	0xbe6300ff	-0.22168349
166	0xbe29f6e4	-0.16598088
167	0x3de64e07	0.11245351
168	0x3e5b707f	0.21429633
169	0xbe18636a	-0.14881673
170	0xbca66a64	-0.020314403
171	0x3e1bee32	0.15227583
172	0xbd39cb30	-0.04535979
173	0xbd2ca827	-0.04215255
174	0x3e253eaa	0.16137186
175	0xbe7eb353	-0.24873094
176	0x3d21fcd7	0.039547767
177	0xbe0f7828	-0.1401068
178	0x3e74524e	0.23859522
179	0xbe5a6e80	-0.21331215
180	0xbe6f5bf1	-0.23374917
181	0xbe207588	-0.15669835
182	0x3c44e5f6	0.012017718
183	0x3d5d64b7	0.054051127
184	0xbe4ddfe1	-0.20104934
185	0x3d1734b1	0.036915485
186	0x3ded37fb	0.11582943
187	0xbe7a2c37	-0.24430929
188	0xbca0a9d1	-0.019612225
189	0x3e1d9335	0.15388186
190	0x3e279bcd	0.16368027
191	0xbdf64837	-0.12025493
192	0xbc3b0a53	-0.011416036
193	0x3e1de012	0.15417507
194	0xbe7145ab	-0.23561732
195	0xbd5e8473	-0.054325532
196	0xbe4fa904	-0.20279318
197	0xbe847675	-0.25871626
198	0xbe98abd5	-0.29818597
199	0x3d4d9e8c	0.05020003
200	0xbd52b168	-0.05143872
201	0xbe604bca	-0.21903911
202	0xbe6375e8	-0.22212946
203	0x3dabf5a1	0.08396459
204	0xbe92ccce	-0.2867188
205	0x3d858f72	0.06521501
206	0x3e2732a0	0.16327906
207	0xbdc18804	-0.09449771
208	0xbdf30ef1	-0.11868084
209	0xbdc6721f	-0.096897356
210	0x3e3d8207	0.18506633
211	0x3e694bf0	0.22782874
212	0x3e605660	0.2190795
213	0x3e2bda22	0.1678243
214	0xbdf5c2e2	-0.120000616
215	0xbd0126e7	-0.03153124
216	0x3d68d304	0.056841865
217	0xbdeb2cf8	-0.114831865
218	0xbe8f9524	-0.28043473
219	0xbe0b117d	-0.1358089
220	0x3e076784	0.13223082
221	0xbe5f6eb1	-0.21819569
222	0x3d657b7a	0.05602596
223	0x3dfadacd	0.12248764
224	0x3d9bc1d3	0.076053284
225	0xbd865ef5	-0.0656108
226	0x3dedac8c	0.11605176
227	0xbe1600e9	-0.14648785
228	0x3e6fa1a2	0.23401502
229	0x3db1643f	0.086616985
230	0xbdbd697a	-0.09248634
231	0x3e5fc620	0.21852922
232	0xbe2449a6	-0.1604372
233	0x3d1dc8cf	0.038521584
234	0xbde278ee	-0.11058222
235	0xbd1f93b7	-0.03895923
236	0x3e49647e	0.19667241
237	0x3d9904f1	0.074716456
238	0x3e3619bb	0.17783253
239	0xbe2c1058	-0.1680311
240	0xbe814a18	-0.25251842
241	0x3df539af	0.11973893
242	0xbde905ab	-0.11378034
243	0xb9a81e64	-0.000320661
244	0x3e1724f8	0.14760196
245	0xbe118e70	-0.14214492
246	0x3dea6978	0.11445898
247	0xbe22a062	-0.15881494
248	0x3d4be5b2	0.0497796
249	0x3c9c1064	0.019050784
250	0xbe575b89	-0.21031012
251	0x3e6dfd1c	0.23241085
252	0x3d6e257e	0.058141224
253	0xbde3883a	-0.111099675
254	0x3e012978	0.12613475
255	0x3e05088c	0.12991542
